{"backend": "tensorflow", "class_name": "Sequential", "config": [{"class_name": "Conv2D", "config": {"strides": [1, 1], "bias_constraint": null, "activity_regularizer": null, "dtype": "float32", "padding": "valid", "batch_input_shape": [null, 32, 32, 1], "trainable": false, "filters": 32, "kernel_regularizer": null, "kernel_initializer": {"class_name": "VarianceScaling", "config": {"scale": 1.0, "distribution": "uniform", "seed": null, "mode": "fan_avg"}}, "kernel_constraint": null, "bias_initializer": {"class_name": "Zeros", "config": {}}, "dilation_rate": [1, 1], "name": "inputTensor", "data_format": "channels_last", "use_bias": true, "activation": "linear", "bias_regularizer": null, "kernel_size": [3, 3]}}, {"class_name": "Activation", "config": {"name": "activation_1", "trainable": true, "activation": "relu"}}, {"class_name": "Conv2D", "config": {"strides": [1, 1], "bias_constraint": null, "activity_regularizer": null, "padding": "valid", "trainable": false, "filters": 32, "kernel_regularizer": null, "kernel_initializer": {"class_name": "VarianceScaling", "config": {"scale": 1.0, "distribution": "uniform", "seed": null, "mode": "fan_avg"}}, "kernel_constraint": null, "bias_initializer": {"class_name": "Zeros", "config": {}}, "dilation_rate": [1, 1], "name": "conv2d_1", "data_format": "channels_last", "use_bias": true, "activation": "linear", "bias_regularizer": null, "kernel_size": [3, 3]}}, {"class_name": "Activation", "config": {"name": "activation_2", "trainable": true, "activation": "relu"}}, {"class_name": "MaxPooling2D", "config": {"name": "max_pooling2d_1", "strides": [2, 2], "trainable": true, "data_format": "channels_last", "padding": "valid", "pool_size": [2, 2]}}, {"class_name": "Dropout", "config": {"name": "dropout_1", "trainable": true, "noise_shape": null, "seed": null, "rate": 0.25}}, {"class_name": "Conv2D", "config": {"strides": [1, 1], "bias_constraint": null, "activity_regularizer": null, "padding": "valid", "trainable": false, "filters": 64, "kernel_regularizer": null, "kernel_initializer": {"class_name": "VarianceScaling", "config": {"scale": 1.0, "distribution": "uniform", "seed": null, "mode": "fan_avg"}}, "kernel_constraint": null, "bias_initializer": {"class_name": "Zeros", "config": {}}, "dilation_rate": [1, 1], "name": "conv2d_2", "data_format": "channels_last", "use_bias": true, "activation": "linear", "bias_regularizer": null, "kernel_size": [3, 3]}}, {"class_name": "Activation", "config": {"name": "activation_3", "trainable": true, "activation": "relu"}}, {"class_name": "Conv2D", "config": {"strides": [1, 1], "bias_constraint": null, "activity_regularizer": null, "padding": "valid", "trainable": false, "filters": 64, "kernel_regularizer": null, "kernel_initializer": {"class_name": "VarianceScaling", "config": {"scale": 1.0, "distribution": "uniform", "seed": null, "mode": "fan_avg"}}, "kernel_constraint": null, "bias_initializer": {"class_name": "Zeros", "config": {}}, "dilation_rate": [1, 1], "name": "conv2d_3", "data_format": "channels_last", "use_bias": true, "activation": "linear", "bias_regularizer": null, "kernel_size": [3, 3]}}, {"class_name": "Activation", "config": {"name": "activation_4", "trainable": true, "activation": "relu"}}, {"class_name": "MaxPooling2D", "config": {"name": "max_pooling2d_2", "strides": [2, 2], "trainable": true, "data_format": "channels_last", "padding": "valid", "pool_size": [2, 2]}}, {"class_name": "Dropout", "config": {"name": "dropout_2", "trainable": true, "noise_shape": null, "seed": null, "rate": 0.25}}, {"class_name": "Flatten", "config": {"name": "flatten_1", "trainable": true, "data_format": "channels_last"}}, {"class_name": "Dense", "config": {"activity_regularizer": null, "trainable": false, "kernel_regularizer": null, "kernel_initializer": {"class_name": "VarianceScaling", "config": {"scale": 1.0, "distribution": "uniform", "seed": null, "mode": "fan_avg"}}, "units": 256, "bias_initializer": {"class_name": "Zeros", "config": {}}, "name": "dense_1", "kernel_constraint": null, "use_bias": true, "bias_constraint": null, "bias_regularizer": null, "activation": "linear"}}, {"class_name": "Activation", "config": {"name": "activation_5", "trainable": true, "activation": "relu"}}, {"class_name": "Dropout", "config": {"name": "dropout_3", "trainable": true, "noise_shape": null, "seed": null, "rate": 0.5}}, {"class_name": "Dense", "config": {"activity_regularizer": null, "trainable": true, "kernel_regularizer": null, "kernel_initializer": {"class_name": "VarianceScaling", "config": {"scale": 1.0, "distribution": "uniform", "seed": null, "mode": "fan_avg"}}, "units": 10, "bias_initializer": {"class_name": "Zeros", "config": {}}, "name": "dense_2", "kernel_constraint": null, "use_bias": true, "bias_constraint": null, "bias_regularizer": null, "activation": "linear"}}, {"class_name": "Activation", "config": {"name": "outputTensor", "trainable": true, "activation": "softmax"}}], "keras_version": "2.2.2"}