{"config": [{"config": {"name": "inputTensor", "filters": 32, "bias_constraint": null, "bias_regularizer": null, "batch_input_shape": [null, 32, 32, 1], "activation": "linear", "strides": [1, 1], "dilation_rate": [1, 1], "trainable": true, "kernel_constraint": null, "use_bias": true, "kernel_initializer": {"config": {"seed": null, "mode": "fan_avg", "scale": 1.0, "distribution": "uniform"}, "class_name": "VarianceScaling"}, "activity_regularizer": null, "bias_initializer": {"config": {}, "class_name": "Zeros"}, "kernel_size": [3, 3], "data_format": "channels_last", "dtype": "float32", "padding": "valid", "kernel_regularizer": null}, "class_name": "Conv2D"}, {"config": {"name": "activation_1", "trainable": true, "activation": "relu"}, "class_name": "Activation"}, {"config": {"name": "conv2d_1", "filters": 32, "bias_constraint": null, "bias_regularizer": null, "activation": "linear", "strides": [1, 1], "use_bias": true, "trainable": true, "kernel_constraint": null, "kernel_initializer": {"config": {"seed": null, "mode": "fan_avg", "scale": 1.0, "distribution": "uniform"}, "class_name": "VarianceScaling"}, "activity_regularizer": null, "bias_initializer": {"config": {}, "class_name": "Zeros"}, "kernel_size": [3, 3], "data_format": "channels_last", "dilation_rate": [1, 1], "padding": "valid", "kernel_regularizer": null}, "class_name": "Conv2D"}, {"config": {"name": "activation_2", "trainable": true, "activation": "relu"}, "class_name": "Activation"}, {"config": {"name": "max_pooling2d_1", "trainable": true, "strides": [2, 2], "pool_size": [2, 2], "data_format": "channels_last", "padding": "valid"}, "class_name": "MaxPooling2D"}, {"config": {"name": "dropout_1", "trainable": true, "seed": null, "noise_shape": null, "rate": 0.25}, "class_name": "Dropout"}, {"config": {"name": "conv2d_2", "filters": 64, "bias_constraint": null, "bias_regularizer": null, "activation": "linear", "strides": [1, 1], "use_bias": true, "trainable": true, "kernel_constraint": null, "kernel_initializer": {"config": {"seed": null, "mode": "fan_avg", "scale": 1.0, "distribution": "uniform"}, "class_name": "VarianceScaling"}, "activity_regularizer": null, "bias_initializer": {"config": {}, "class_name": "Zeros"}, "kernel_size": [3, 3], "data_format": "channels_last", "dilation_rate": [1, 1], "padding": "valid", "kernel_regularizer": null}, "class_name": "Conv2D"}, {"config": {"name": "activation_3", "trainable": true, "activation": "relu"}, "class_name": "Activation"}, {"config": {"name": "conv2d_3", "filters": 64, "bias_constraint": null, "bias_regularizer": null, "activation": "linear", "strides": [1, 1], "use_bias": true, "trainable": true, "kernel_constraint": null, "kernel_initializer": {"config": {"seed": null, "mode": "fan_avg", "scale": 1.0, "distribution": "uniform"}, "class_name": "VarianceScaling"}, "activity_regularizer": null, "bias_initializer": {"config": {}, "class_name": "Zeros"}, "kernel_size": [3, 3], "data_format": "channels_last", "dilation_rate": [1, 1], "padding": "valid", "kernel_regularizer": null}, "class_name": "Conv2D"}, {"config": {"name": "activation_4", "trainable": true, "activation": "relu"}, "class_name": "Activation"}, {"config": {"name": "max_pooling2d_2", "trainable": true, "strides": [2, 2], "pool_size": [2, 2], "data_format": "channels_last", "padding": "valid"}, "class_name": "MaxPooling2D"}, {"config": {"name": "dropout_2", "trainable": true, "seed": null, "noise_shape": null, "rate": 0.25}, "class_name": "Dropout"}, {"config": {"name": "flatten_1", "trainable": true, "data_format": "channels_last"}, "class_name": "Flatten"}, {"config": {"name": "dense_1", "trainable": true, "bias_constraint": null, "bias_regularizer": null, "units": 256, "use_bias": true, "activation": "linear", "kernel_constraint": null, "bias_initializer": {"config": {}, "class_name": "Zeros"}, "activity_regularizer": null, "kernel_initializer": {"config": {"seed": null, "mode": "fan_avg", "scale": 1.0, "distribution": "uniform"}, "class_name": "VarianceScaling"}, "kernel_regularizer": null}, "class_name": "Dense"}, {"config": {"name": "activation_5", "trainable": true, "activation": "relu"}, "class_name": "Activation"}, {"config": {"name": "dropout_3", "trainable": true, "seed": null, "noise_shape": null, "rate": 0.5}, "class_name": "Dropout"}, {"config": {"name": "dense_2", "trainable": true, "bias_constraint": null, "bias_regularizer": null, "units": 10, "use_bias": true, "activation": "linear", "kernel_constraint": null, "bias_initializer": {"config": {}, "class_name": "Zeros"}, "activity_regularizer": null, "kernel_initializer": {"config": {"seed": null, "mode": "fan_avg", "scale": 1.0, "distribution": "uniform"}, "class_name": "VarianceScaling"}, "kernel_regularizer": null}, "class_name": "Dense"}, {"config": {"name": "outputTensor", "trainable": true, "activation": "softmax"}, "class_name": "Activation"}], "keras_version": "2.2.2", "backend": "tensorflow", "class_name": "Sequential"}