{"config": [{"config": {"name": "inputTensor", "batch_input_shape": [null, 32, 32, 1], "dilation_rate": [1, 1], "padding": "valid", "bias_regularizer": null, "activation": "linear", "kernel_constraint": null, "filters": 6, "strides": [1, 1], "kernel_size": [5, 5], "dtype": "float32", "bias_constraint": null, "use_bias": true, "trainable": true, "data_format": "channels_last", "kernel_initializer": {"config": {"mode": "fan_avg", "distribution": "uniform", "seed": null, "scale": 1.0}, "class_name": "VarianceScaling"}, "activity_regularizer": null, "bias_initializer": {"config": {}, "class_name": "Zeros"}, "kernel_regularizer": null}, "class_name": "Conv2D"}, {"config": {"name": "activation_1", "trainable": true, "activation": "relu"}, "class_name": "Activation"}, {"config": {"name": "max_pooling2d_1", "pool_size": [2, 2], "trainable": true, "data_format": "channels_last", "padding": "valid", "strides": [2, 2]}, "class_name": "MaxPooling2D"}, {"config": {"name": "conv2d_1", "kernel_constraint": null, "dilation_rate": [1, 1], "padding": "valid", "activation": "linear", "bias_regularizer": null, "filters": 16, "strides": [1, 1], "kernel_size": [5, 5], "bias_constraint": null, "use_bias": true, "trainable": true, "data_format": "channels_last", "kernel_initializer": {"config": {"mode": "fan_avg", "distribution": "uniform", "seed": null, "scale": 1.0}, "class_name": "VarianceScaling"}, "activity_regularizer": null, "bias_initializer": {"config": {}, "class_name": "Zeros"}, "kernel_regularizer": null}, "class_name": "Conv2D"}, {"config": {"name": "activation_2", "trainable": true, "activation": "relu"}, "class_name": "Activation"}, {"config": {"name": "dropout_1", "noise_shape": null, "trainable": true, "seed": null, "rate": 0.2}, "class_name": "Dropout"}, {"config": {"name": "max_pooling2d_2", "pool_size": [2, 2], "trainable": true, "data_format": "channels_last", "padding": "valid", "strides": [2, 2]}, "class_name": "MaxPooling2D"}, {"config": {"name": "flatten_1", "data_format": "channels_last", "trainable": true}, "class_name": "Flatten"}, {"config": {"name": "dense_1", "kernel_constraint": null, "units": 120, "bias_regularizer": null, "bias_constraint": null, "use_bias": true, "trainable": true, "activation": "linear", "kernel_initializer": {"config": {"mode": "fan_avg", "distribution": "uniform", "seed": null, "scale": 1.0}, "class_name": "VarianceScaling"}, "activity_regularizer": null, "bias_initializer": {"config": {}, "class_name": "Zeros"}, "kernel_regularizer": null}, "class_name": "Dense"}, {"config": {"name": "activation_3", "trainable": true, "activation": "relu"}, "class_name": "Activation"}, {"config": {"name": "dropout_2", "noise_shape": null, "trainable": true, "seed": null, "rate": 0.5}, "class_name": "Dropout"}, {"config": {"name": "dense_2", "kernel_constraint": null, "units": 84, "bias_regularizer": null, "bias_constraint": null, "use_bias": true, "trainable": true, "activation": "linear", "kernel_initializer": {"config": {"mode": "fan_avg", "distribution": "uniform", "seed": null, "scale": 1.0}, "class_name": "VarianceScaling"}, "activity_regularizer": null, "bias_initializer": {"config": {}, "class_name": "Zeros"}, "kernel_regularizer": null}, "class_name": "Dense"}, {"config": {"name": "activation_4", "trainable": true, "activation": "relu"}, "class_name": "Activation"}, {"config": {"name": "dropout_3", "noise_shape": null, "trainable": true, "seed": null, "rate": 0.5}, "class_name": "Dropout"}, {"config": {"name": "dense_3", "kernel_constraint": null, "units": 2, "bias_regularizer": null, "bias_constraint": null, "use_bias": true, "trainable": true, "activation": "linear", "kernel_initializer": {"config": {"mode": "fan_avg", "distribution": "uniform", "seed": null, "scale": 1.0}, "class_name": "VarianceScaling"}, "activity_regularizer": null, "bias_initializer": {"config": {}, "class_name": "Zeros"}, "kernel_regularizer": null}, "class_name": "Dense"}, {"config": {"name": "outputTensor", "trainable": true, "activation": "softmax"}, "class_name": "Activation"}], "backend": "tensorflow", "keras_version": "2.2.2", "class_name": "Sequential"}